…
        "model = Net().to(device)\n",
        "summary(model, input_size=(1, 28, 28))"
      ],
      "execution_count": 6,
      "outputs": [
        {
          "output_type": "stream",
          "text": [
            "Requirement already satisfied: torchsummary in /usr/local/lib/python3.6/dist-packages (1.5.1)\n",
            "cuda\n",
            "----------------------------------------------------------------\n",
            "        Layer (type)               Output Shape         Param #\n",
            "================================================================\n",
            "            Conv2d-1            [-1, 8, 26, 26]              72\n",
            "              ReLU-2            [-1, 8, 26, 26]               0\n",
            "       BatchNorm2d-3            [-1, 8, 26, 26]              16\n",
            "           Dropout-4            [-1, 8, 26, 26]               0\n",
            "            Conv2d-5           [-1, 16, 24, 24]           1,152\n",
            "              ReLU-6           [-1, 16, 24, 24]               0\n",
            "       BatchNorm2d-7           [-1, 16, 24, 24]              32\n",
            "           Dropout-8           [-1, 16, 24, 24]               0\n",
            "            Conv2d-9            [-1, 8, 24, 24]             128\n",
            "        MaxPool2d-10            [-1, 8, 12, 12]               0\n",
            "           Conv2d-11           [-1, 16, 10, 10]           1,152\n",
            "             ReLU-12           [-1, 16, 10, 10]               0\n",
            "      BatchNorm2d-13           [-1, 16, 10, 10]              32\n",
            "          Dropout-14           [-1, 16, 10, 10]               0\n",
            "           Conv2d-15             [-1, 16, 8, 8]           2,304\n",
            "             ReLU-16             [-1, 16, 8, 8]               0\n",
            "      BatchNorm2d-17             [-1, 16, 8, 8]              32\n",
            "          Dropout-18             [-1, 16, 8, 8]               0\n",
            "           Conv2d-19             [-1, 16, 6, 6]           2,304\n",
            "             ReLU-20             [-1, 16, 6, 6]               0\n",
            "      BatchNorm2d-21             [-1, 16, 6, 6]              32\n",
            "          Dropout-22             [-1, 16, 6, 6]               0\n",
            "           Conv2d-23             [-1, 16, 6, 6]           2,304\n",
            "             ReLU-24             [-1, 16, 6, 6]               0\n",
            "      BatchNorm2d-25             [-1, 16, 6, 6]              32\n",
            "          Dropout-26             [-1, 16, 6, 6]               0\n",
            "        AvgPool2d-27             [-1, 16, 1, 1]               0\n",
            "           Conv2d-28             [-1, 10, 1, 1]             160\n",
            "================================================================\n",
            "Total params: 9,752\n",
            "Trainable params: 9,752\n",
            "Non-trainable params: 0\n",
            "----------------------------------------------------------------\n",
            "Input size (MB): 0.00\n",
            "Forward/backward pass size (MB): 0.61\n",
            "Params size (MB): 0.04\n",
…
